ai/mnist_cnn.pt (torch, 917712 bytes, 22 tensors)

0.weight f4 [32, 1, 3, 3]
-0.20360845 -0.1223146 0.76546973 -0.9666371 -0.6459994 -1.5376968 0.12928826 0.3825058
0.86384404 0.56797636 -0.38946518 -0.32797688 0.7860407 -1.6267889 0.5371172 -0.70470345
-0.7722372 0.5448242 0.51177174 -0.022345195 0.25229 -0.12442171 -0.65078926 0.2095861
-0.73374474 -1.1919132 1.8216267 0.18621507 0.27338788 0.74303573 0.11377958 0.6363842
-0.6429909 -1.4173537 -1.0388288 -0.9639709 -0.27195227 0.3826568 0.97122586 -0.19899938
1.2555937 0.2419622 -2.2277062 -0.4459581 -0.2280994 0.6642733 0.011841621 -1.0268071
0.8209397 0.044807114 -1.3236327 0.7285115 0.018913284 -0.75501263 -1.6610029 0.24262422
0.051267523 0.7867254 1.0598677 0.07617017 0.19007738 -0.9158983 -0.5708957 1.2245833
0.7561561 -0.8455363 -0.19582441 0.5261859 -1.3918848 -1.1093155 -0.09029071 -0.086286016
-0.37444752 0.63959193 -0.048772033 -1.3396266 1.5459002 0.025225222 -0.6495414 0.601329
0.18608248 -0.369399 -1.3654066 1.0222669 0.8143048 -0.9619623 -0.7446587 0.453294
0.516901 -0.1643118 0.20650837 0.46813527 -0.96309847 -0.54494596 1.7839909 -0.47287607
-1.0739473 0.2636182 0.61387515 -1.5448276 -1.1074691 -0.23532358 0.5762489 1.2118037
0.5731077 -0.3332788 -0.41948983 0.89775497 0.8357892 -1.0242234 -0.012665551 -0.05146503
-1.5836833 1.123796 -0.026201934 -0.085941605 0.40546003 -1.258174 0.20069431 1.5420433
0.29679334 1.0112305 1.0927418 -0.14755568 -0.27806985 0.7599253 -0.08833931 0.84089065
1.020672 -0.75259143 -0.6834621 -0.71699595 -0.93963706 -0.46271667 -0.31077817 -0.14318319
-1.076657 -1.2156978 0.49930963 -0.6769049 0.10046885 0.7843942 0.55579925 0.6545268
-1.1414584 -0.009688199 0.5925188 -0.8231796 0.16382834 1.0488603 -0.7317988 -0.8556198
-0.08437659 0.24526176 -0.7363407 -0.42912325 -0.8937417 -0.7206872 -0.8028313 1.1106353
0.36975032 1.1097702 -0.25280786 0.84749913 0.5571292 0.48570362 -1.216347 -1.2612244
-0.41295683 0.032813855 0.8183803 0.730637 -1.1151042 -0.7947453 -1.3693078 -0.24169047
0.3770432 -0.95095634 0.58558244 0.4476336 -0.7584976 0.34049112 -0.3605738 -0.13223901
0.8226102 1.2239226 0.64559305 0.34007025 -0.7658231 -0.26057813 -0.22600165 -1.4210932
0.67697877 1.6736466 -0.2997042 -1.0547023 0.55577254 0.1936114 -0.4229285 0.4486404
-0.86025435 0.3054506 0.7446883 -0.5280518 -0.112077765 0.03660337 -1.6064347 0.3432768
-0.17014179 -1.101689 -0.753364 -0.41523677 1.4912779 0.9191874 0.050873414 -0.15587881
-1.1118202 -0.18302307 0.7795277 -0.14180967 -1.4665222 0.5059834 0.9409379 -0.73230624
-0.7291993 -1.2824336 -1.4498913 -1.4818116 -0.86604434 0.26015085 0.27535927 0.0014326787
0.65487355 0.27798358 -0.09463198 -0.5140324 -0.1913698 -0.14755616 1.9586229 -1.0546128
-0.9377311 1.2938739 -1.3314823 0.076301016 1.0271374 -0.61450267 0.98495024 -0.3614273
-0.9345221 0.897519 -1.5015987 0.58554745 0.19298506 0.6754817 1.2507838 0.2609604
00000000: bc7e 50be 1480 fabd d3f5 433f 8775 77bf
00000010: 3760 25bf 40d3 c4bf 2464 043e cdd7 c33e
00000020: e224 5d3f e666 113f fb67 c7be 96ec a7be
00000030: f739 493f 9e3a d0bf 8380 093f 7267 34bf
00000040: 56b1 45bf 9979 0b3f 7903 033f 450d b7bc
00000050: 282c 813e cfd0 febd 209a 26bf bd9d 563e
00000060: b2d6 3bbf 9d90 98bf 102b e93f 2aaf 3e3e
00000070: 7ff9 8b3e 9737 3e3f 4505 e93d 13ea 223f
00000080: 0d9b 24bf d96b b5bf 58f8 84bf ccc6 76bf
00000090: 543d 8bbe 98eb c33e 42a2 783f 7ec6 4bbe
000000a0: 4bb7 a03f f0c4 773e bd92 0ec0 9f54 e4be
000000b0: e492 69be d10d 2a3f 5c03 423c 6a6e 83bf
000000c0: 1b29 523f aa87 373d cc6c a9bf bb7f 3a3f
000000d0: 08f0 9a3c 8248 41bf be9b d4bf 7c72 783e
000000e0: e5fd 513d d666 493f bfa9 873f 1bff 9b3d
000000f0: a5a3 423e 5078 6abf 3826 12bf 25bf 9c3f
00000100: 7293 413f 1175 58bf 3286 48be 1fb4 063f
00000110: 4829 b2bf 0dfe 8dbf 56ea b8bd b9b6 b0bd
00000120: 96b7 bfbe 4cbc 233f 2fc5 47bd e278 abbf
00000130: 0fe0 c53f 20a5 ce3c 5848 26bf b3f0 193f
00000140: 688c 3e3e de21 bdbe a5c5 aebf a4d9 823f
00000150: 4876 503f 2943 76bf f4a1 3ebf 2716 e83e
00000160: a053 043f 5a41 28be ee76 533e 6daf ef3e
00000170: 9f8d 76bf 9481 0bbf d059 e43f d01c f2be
00000180: 1b77 89bf f7f8 863e ec26 1d3f e9bc c5bf
00000190: 8cc1 8dbf aaf8 70be 0c85 133f 621c 9b3f
000001a0: 30b7 123f 85a3 aabe 5fc7 d6be 45d3 653f
000001b0: 48f6 553f c119 83bf 2c83 4fbc ffcc 52bd
000001c0: 22b6 cabf 8cd8 8f3f 70a5 d6bc 2702 b0bd
000001d0: 7598 cf3e d80b a1bf cf82 4d3e ad61 c53f
000001e0: 4cf5 973e 0070 813f f7de 8b3f d618 17be
000001f0: 2c5f 8ebe 778a 423f 3deb b4bd 9c44 573f
00000200: 61a5 823f d5a9 40bf 5ff7 2ebf 0c8d 37bf
00000210: 0e8c 70bf 33e9 ecbe 511e 9fbe 9d9e 12be
00000220: e6cf 89bf fc9b 9bbf 83a5 ff3e a449 2dbf
00000230: 9dc2 cd3d 0fce 483f dc48 0e3f 128f 273f
00000240: 4f1b 92bf 40bb 1ebc 50af 173f e6bb 52bf
00000250: 9ec2 273e 0e41 863f 2b57 3bbf e609 5bbf
00000260: a2cd acbd e625 7b3e d380 3cbf 0bb6 dbbe
00000270: 42cc 64bf f57e 38bf 5a86 4dbf 4c29 8e3f
00000280: ea4f bd3e f30c 8e3f 0870 81be b4f5 583f
00000290: 05a0 0e3f 25ae f83e 42b1 9bbf cd6f a1bf
000002a0: 146f d3be d267 063d 5f81 513f 070b 3b3f
000002b0: bcbb 8ebf 6e74 4bbf 7a45 afbf b57d 77be
000002c0: ce0b c13e e071 73bf bbe8 153f 3b30 e53e
000002d0: e62c 42bf da54 ae3e 219d b8be aa69 07be
000002e0: 9596 523f 7fa9 9c3f 9645 253f b01d ae3e
000002f0: fc0c 44bf 7f6a 85be fa6c 67be 62e6 b5bf
00000300: 7b4e 2d3f 0d3a d63f d472 99be 7c00 87bf
00000310: 1c47 0e3f 1142 463e 168a d8be 32b4 e53e
00000320: a139 5cbf 0564 9c3e e4a3 3e3f 672e 07bf
00000330: 0789 e5bd 6aed 153d a79f cdbf fac1 af3e
00000340: a639 2ebe 2504 8dbf 77dc 40bf ea99 d4be
00000350: 32e2 be3f de4f 6b3f a460 503d b29e 1fbe
00000360: 2050 8ebf 666a 3bbe 218f 473f 8e36 11be
00000370: 00b7 bbbf 2188 013f 4ee1 703f 6c78 3bbf
00000380: ceac 3abf c926 a4bf 0a96 b9bf 01ac bdbf
00000390: 15b5 5dbf 7e32 853e e4fb 8c3e b8c8 bb3a
000003a0: cba5 273f dd53 8e3e 69ce c1bd a197 03bf
000003b0: 72f6 43be f618 17be 28b4 fa3f 8dfd 86bf
000003c0: 250f 70bf a99d a53f 036e aabf b543 9c3d
000003d0: 3d79 833f 0c50 1dbf b325 7c3f 000d b9be
000003e0: d73c 6fbf cec3 653f 6334 c0bf 70e6 153f
000003f0: e09d 453e 5eec 2c3f af19 a03f 9a9c 853e

0.bias f4 [32]
0.27122918 0.113848366 0.3729637 0.13716677 -1.770714 0.15569752 0.15719543 0.3550924
0.8924755 0.34850746 -0.57467896 0.40975082 0.302676 -0.47767997 -0.25904334 -0.0055779004
-0.6556292 0.06758672 0.33048713 0.48140314 0.14377823 0.5087769 0.17432487 0.5736973
-0.3223691 0.6344037 0.73145443 -1.4766164 -0.98031515 0.57040215 0.009672731 -0.91503644
00000000: 8dde 8a3e 5529 e93d 19f5 be3e 7275 0c3e
00000010: c2a6 e2bf 2c6f 1f3e d7f7 203e acce b53e
00000020: 4679 643f 926f b23e 291e 13bf dcca d13e
00000030: 59f8 9a3e 7892 f4be 54a1 84be d2c6 b6bb
00000040: 51d7 27bf e86a 8a3d 9c35 a93e 797a f63e
00000050: 9a3a 133e 343f 023f 3882 323e d4dd 123f
00000060: 900d a5be 4868 223f 9940 3b3f c401 bdbf
00000070: eff5 7abf e005 123f 607a 1e3c d43f 6abf

1.weight f4 [32]
0.9835535 2.2504866 0.9281404 1.8887315 1.1007284 1.2597988 2.216606 1.330726
0.8371941 1.8657465 1.26747 1.039732 1.1950746 0.53462297 1.0432914 0.87930036
1.8381493 0.83853513 1.479425 1.7073659 0.18882672 1.2618331 0.79317385 0.57778865
2.3589535 1.1216878 0.99279225 0.8649051 1.0211772 0.5704876 1.8324907 0.71842664
00000000: 2aca 7b3f f907 1040 9c9a 6d3f f4c1 f13f
00000010: abe4 8c3f 1641 a13f dfdc 0d40 3b55 aa3f
00000020: 5a52 563f c8d0 ee3f 753c a23f f015 853f
00000030: 34f8 983f 0ddd 083f 938a 853f d419 613f
00000040: 7a48 eb3f 3daa 563f cc5d bd3f f78a da3f
00000050: cb5b 413e bf83 a13f 710d 4b3f f5e9 133f
00000060: 18f9 1640 7793 8f3f a227 7e3f 6c6a 5d3f
00000070: efb5 823f 7a0b 123f 0e8f ea3f cfea 373f

1.bias f4 [32]
-0.44313866 -0.3275292 -1.1282254 0.09602887 0.22742115 0.029485041 -0.97987443 -0.41980854
-0.9351432 -0.06660872 -1.736415 -0.3671154 -0.40372655 -0.80899936 -0.19639339 -0.06907911
-0.2841581 -0.3229005 -0.6387344 -0.21637814 -0.8178845 -0.8297975 -0.46871737 -1.1251299
-0.39982218 -0.04423204 -0.4133468 -0.7666554 -0.18838431 -1.1208313 -0.44112277 -0.9012419
00000000: 12e3 e2be e8b1 a7be b169 90bf c9aa c43d
00000010: 17e1 683e 9d8a f13c 0dd9 7abf 25f1 d6be
00000020: 8b65 6fbf 276a 88bd d942 debf 8df6 bbbe
00000030: 3fb5 cebe 951a 4fbf 591b 49be 5979 8dbd
00000040: 2c7d 91be 3753 a5be 1984 23bf 3b92 5dbe
00000050: e160 51bf 9c6d 54bf b9fb efbe 4204 90bf
00000060: 7eb5 ccbe a82c 35bd 31a2 d3be 8743 44bf
00000070: d1e7 40be 6677 8fbf d8da e1be cab7 66bf

1.running_mean f4 [32]
0.083776176 -0.10957393 0.35858512 -0.19919051 -1.8649491 0.04686376 0.06203567 0.18482934
0.96889436 0.22426851 -0.5468465 0.35166562 0.23214608 -0.017042361 -0.5738939 -0.06855501
-0.95790166 -0.02701473 0.277516 0.13957895 0.3480251 0.50997204 -0.13425212 0.61748487
-0.68908733 0.08067558 0.58618283 -1.4597329 -1.0208682 0.78796935 -0.013157268 -1.0537957
00000000: d892 ab3d 4c68 e0bd 7898 b73e 99f8 4bbe
00000010: a7b6 eebf 37f4 3f3d 1d19 7e3d e743 3d3e
00000020: 7609 783f a5a6 653e 22fe 0bbf 840d b43e
00000030: b4b7 6d3e 6c9c 8bbc b6ea 12bf 9266 8cbd
00000040: 0b39 75bf ff4d ddbc 9416 8e3e c9ed 0e3e
00000050: 5930 b23e 878d 023f 6379 09be 7d13 1e3f
00000060: 0768 30bf 3d39 a53d 1410 163f 87d8 babf
00000070: cfab 82bf 5cb8 493f 9591 57bc c7e2 86bf

1.running_var f4 [32]
0.28048438 0.35006094 0.25787586 0.68594867 0.49916753 0.59927076 0.13176163 0.44580537
0.24221975 0.17979223 0.11892466 0.39064535 0.18708625 1.2698749 0.6015429 0.41142616
0.6118811 0.36193815 0.10124187 0.6475625 0.30944082 0.1647716 0.43824196 0.09920008
0.5013118 1.437699 0.18837127 0.28881007 0.4076685 0.30115864 0.20369714 0.12922591
00000000: a69b 8f3e 303b b33e 4e08 843e 559a 2f3f
00000010: e392 ff3e cf69 193f 85ec 063e 9a40 e43e
00000020: 7408 783e 741b 383e c68e f33d ab02 c83e
00000030: 8a93 3f3e 438b a23f b7fe 193f 73a6 d23e
00000040: 3da4 1c3f f54f b93e e657 cf3d a8c6 253f
00000050: 076f 9e3e e3b9 283e 4061 e03e 6929 cb3d
00000060: f855 003f 8506 b83f 66e4 403e eade 933e
00000070: edb9 d03e 7731 9a3e fc95 503e cc53 043e

4.weight f4 [64, 32, 3, 3]
-0.30157027 -1.0253681 0.08341475 0.5093472 -0.021840444 -0.15206902 -0.08756698 0.17752959
0.13245566 -0.16157793 0.27254534 1.2765714 -0.5849277 -0.9619072 -0.2383734 0.49739403
-0.43385744 -0.13722782 0.30441597 0.100532725 0.31392974 -0.93568027 0.018152995 0.54788667
-0.06488272 0.3559626 0.29963788 -0.37889645 -0.11297915 0.020675076 -0.8419945 0.28060025
0.52031916 -1.2066251 -0.7435369 0.025996804 -0.36637607 0.69867504 -0.18369715 -0.866889
1.3670107 1.2082136 -0.71532315 -0.8205153 -1.3740795 -0.39697796 -0.13644548 -0.7092054
0.18478028 0.0021762322 -0.8851049 0.6899652 0.504301 -0.27745867 -1.4581667 -0.83568877
-0.034877356 -0.23704258 -0.46834853 -0.54169047 0.1946182 -0.5647745 -0.4623386 -0.8816548
-0.38887122 0.8541167 -0.5499778 -1.396279 -0.29760447 -0.09658399 -0.7428396 -0.55507576
-0.90539193 1.5449669 0.20853242 -0.5942314 0.012488754 -0.025201151 0.5056904 -0.20078856
-0.23468955 0.501255 -0.4718809 -1.4854333 0.901043 1.5022024 0.13990533 0.0014456909
0.69981736 0.09197384 -0.68082523 0.94726634 -0.2900909 -0.079970546 1.0165988 -0.09280533
-0.027789347 0.28945196 -0.31938797 -1.4858748 0.72970134 1.0486833 -0.14616792 -1.2405541
-0.12886503 0.30718976 0.278472 -0.06911432 -0.2445053 0.31448317 0.66946983 -0.74731666
-1.3416258 0.034431044 0.27631626 0.2228855 -0.1108505 -1.0033156 0.3572758 0.59970844
-0.626093 0.05290777 0.45514756 0.077838995 -0.2869296 0.14701734 -0.5491495 -0.5273033
-0.29241514 -0.42683992 0.81338954 0.44739676 -0.95059305 -0.41399854 0.20875442 -0.39205918
-0.4344803 -0.0043497244 0.44777623 0.071395986 -0.6449852 0.32616377 0.36779723 -0.10887111
0.1300464 1.1114122 0.43791223 -0.4573587 0.8753949 1.0321972 -0.28973797 -1.0749999
-1.1557758 0.11843705 -0.47083408 -0.112081446 0.33053273 -0.1653083 -0.39440128 0.28177583
0.25630382 -0.028674569 -0.9377309 -1.2288933 -0.17301853 -0.5375977 -0.1824042 0.26734874
-0.75457156 0.16392158 0.6542576 -0.098045655 0.349236 1.1917778 -0.034350008 -1.9785049
-0.24834335 0.7157805 0.8205554 0.22356962 -0.98054105 -0.02373653 0.36859956 -0.3419942
-0.44589084 0.0089005185 0.25266317 -0.17695934 -0.22867692 -0.40361708 -0.06676627 -0.07948104
0.8699186 0.78321004 -0.44882244 -0.034073733 0.12098923 -0.72455806 -0.50734925 -0.6110631
-0.23735514 -0.08867696 -0.8419853 -0.70686185 0.5555865 0.11040553 -0.5647509 -0.47869375
-0.073969334 0.28481817 -0.22494835 -0.6441804 -0.18453363 -0.15393905 -0.24097194 -0.75958514
1.2331547 0.9506199 -0.157924 1.4093218 2.1621027 1.5095704 -1.2524039 -0.22380555
-0.3890629 0.2754338 -0.051188245 0.4847739 0.0756274 -0.8738964 -0.46804357 0.04843318
0.26795062 -0.14854978 -0.67743814 -0.035209935 -0.4074147 -0.25472707 -0.81942964 -0.403316
0.46530774 0.13257949 -0.6767373 -0.81349534 -0.4790971 -0.5176149 0.20288908 -1.1981056
-0.9086613 0.33838174 -0.2939494 -0.3973126 -0.699221 -0.7744019 0.12665252 -0.42700818
00000000: 6b67 9abe 433f 83bf 5ad5 aa3d 9464 023f
00000010: bbea b2bc fbb7 1bbe 5156 b3bd 51ca 353e
00000020: 75a2 073e af74 25be 108b 8b3e b166 a33f
00000030: d2bd 15bf 8d3f 76bf 2818 74be 6eaa fe3e
00000040: 9022 debe 7385 0cbe 69dc 9b3e 1ae4 cd3d
00000050: 66bb a03e be88 6fbf 97b5 943c 4d42 0c3f
00000060: 3be1 84bd bb40 b63e 236a 993e b7fe c1be
00000070: 9d61 e7bd c75e a93c f48c 57bf d6aa 8f3e
00000080: a333 053f b172 9abf 6f58 3ebf 40f7 d43c
00000090: a595 bbbe 5edc 323f 1b1b 3cbe 70ec 5dbf
000000a0: 35fa ae3f bea6 9a3f 6b1f 37bf 4a0d 52bf
000000b0: d6e1 afbf b240 cbbe 5db8 0bbe 7c8e 35bf
000000c0: 0b37 3d3e 1e9f 0e3b 3c96 62bf 8fa1 303f
000000d0: df19 013f 100f 8ebe 35a5 babf b3ef 55bf
000000e0: 8fdb 0ebd 4abb 72be 61cb efbe 3aac 0abf
000000f0: fe49 473e 1095 10bf a5b7 ecbe 21b4 61bf
00000100: 211a c7be 64a7 5a3f 58cb 0cbf 45b9 b2bf
00000110: 9d5f 98be d4cd c5bd bc2a 3ebf 7219 0ebf
00000120: c4c7 67bf 7ac1 c53f 8689 553e 8d1f 18bf
00000130: a19d 4c3c a572 cebc ed74 013f 849b 4dbe
00000140: 7552 70be 3f52 003f 609a f1be ae22 bebf
00000150: c1aa 663f 2b48 c03f 5843 0f3e 567d bd3a
00000160: 3b27 333f c85c bc3d 904a 2ebf 0c80 723f
00000170: cb86 94be 99c7 a3bd e91f 823f b910 bebd
00000180: 7ca6 e3bc 0c33 943e d286 a3be 2531 bebf
00000190: b5cd 3a3f 413b 863f 0bad 15be 7aca 9ebf
000001a0: 32f5 03be fa47 9d3e e293 8e3e cf8b 8dbd
000001b0: 995f 7abe f003 a13e 6062 2b3f 2550 3fbf
000001c0: 65ba abbf 9107 0d3d 5379 8d3e 193c 643e
000001d0: 9605 e3bd a56c 80bf dbec b63e 7e86 193f
000001e0: a147 20bf d1b5 583d 1a09 e93e 0d6a 9f3d
000001f0: 70e8 92be b78b 163e 1095 0cbf 59fd 06bf
00000200: 70b7 95be c38a dabe 4c3a 503f 3011 e53e
00000210: 115a 73bf 9ef7 d3be b8c3 553e fbbb c8be
00000220: 3474 debe 2288 8ebb ed42 e53e 0f38 923d
00000230: c01d 25bf f0fe a63e eb4f bc3e d1f7 debd
00000240: e22a 053e c142 8e3f 0836 e03e eb2a eabe
00000250: e119 603f 0a1f 843f 8958 94be 9999 89bf
00000260: 76f0 93bf 208f f23d 2a11 f1be f58a e5bd
00000270: 963b a93e 9446 29be f7ee c9be ec44 903e
00000280: 413a 833e eee6 eabc 220f 70bf 604c 9dbf
00000290: c52b 31be 01a0 09bf 2bc8 3abe efe1 883e
000002a0: 9a2b 41bf 0fdb 273e 6d7d 273f 29cc c8bd
000002b0: 10cf b23e 2d8c 983f 98b2 0cbd a63f fdbf
000002c0: b84d 7ebe 643d 373f eb0f 523f 6fef 643e
000002d0: bd04 7bbf 1d73 c2bc 15b9 bc3e dd19 afbe
000002e0: ce4b e4be 7bd3 113c 115d 813e d434 35be
000002f0: 482a 6abe e6a6 cebe c1bc 88bd f5c6 a2bd
00000300: fcb2 5e3f 7480 483f 0ecc e5be e690 0bbd
00000310: 34c9 f73d a37c 39bf a4e1 01bf a26e 1cbf
00000320: 3a0d 73be 449c b5bd 598c 57bf e6f4 34bf
00000330: eb3a 0e3f 4b1c e23d 8493 10bf 5917 f5be
00000340: 3c7d 97bd b0d3 913e dc58 66be 02e9 24bf
00000350: 62f6 3cbe 33a2 1dbe 59c1 76be 2c74 42bf
00000360: 03d8 9d3f d35b 733f d4b6 21be a864 b43f
00000370: e45f 0a40 9a39 c13f c54e a0bf 482d 65be
00000380: 4133 c7be a905 8d3e c4aa 51bd 4934 f83e
00000390: 8ae2 9a3d adb7 5fbf 68a3 efbe df61 463d
000003a0: d330 893e 6f1d 18be 966c 2dbf 4b38 10bd
000003b0: a998 d0be 966b 82be 24c6 51bf 6f7f cebe
000003c0: d13c ee3e ebc2 073e a83e 2dbf 3b41 50bf
000003d0: 374c f5be 6982 04bf 28c2 4f3e 865b 99bf
000003e0: 079e 68bf 5f40 ad3e 8980 96be 8f6c cbbe
000003f0: 2600 33bf 343f 46bf 33b1 013e d1a0 dabe

4.bias f4 [64]
0.08169271 -0.67023224 -0.37637115 0.502999 -0.14963017 -0.18515675 0.118229926 0.1393774
-0.0043044323 -0.098250926 -0.4834067 -0.19213516 0.021114025 -0.037140906 0.04289137 0.108475395
0.31425455 0.2781294 0.071539514 0.39564776 0.15991704 0.7592636 0.100364804 0.20774707
1.0546663 -0.9355321 -0.44461653 -0.4980068 -0.13382734 0.10633714 -0.024974385 0.031106114
0.2527578 0.032023728 0.67443633 -0.1795673 0.05608906 0.118846856 -0.34285584 0.39450467
0.46192923 -0.19491684 0.21143645 0.14688522 0.11660665 0.12552875 0.10745391 0.409114
0.31380215 0.0105116805 0.14958152 0.020458372 0.038963642 -0.1704004 0.14591451 -0.19921069
0.6780309 0.048976824 0.10227117 0.12000966 -0.29247466 0.10606719 0.1529698 -0.22660483
00000000: 824e a73d 5794 2bbf b8b3 c0be 8bc4 003f
00000010: a738 19be bb99 3dbe 8822 f23d f3b8 0e3e
00000020: 320c 8dbb c837 c9bd 1581 f7be 14bf 44be
00000030: 52f7 ac3c 1021 18bd dcae 2f3d 5928 de3d
00000040: f9e5 a03e fa66 8e3e 4f83 923d 5892 ca3e
00000050: 4bc1 233e 195f 423f 108c cd3d a6bb 543e
00000060: 4eff 863f 087f 6fbf c7a4 e3be bffa febe
00000070: 090a 09be 49c7 d93d 1597 ccbc 40d2 fe3c
00000080: 7869 813e 502b 033d dca7 2c3f 7ee0 37be
00000090: a4bd 653d fb65 f33d cd8a afbe 84fc c93e
000000a0: fd81 ec3e 4898 47be cc82 583e 1469 163e
000000b0: 78cf ee3d 9c8a 003e cc10 dc3d 6477 d13e
000000c0: adaa a03e 2f39 2c3c e62b 193e 5198 a73c
000000d0: 5798 1f3d 717d 2ebe 9d6a 153e e3fd 4bbe
000000e0: 6f93 2d3f ec9b 483d 8c73 d13d a0c7 f53d
000000f0: 3dbf 95be c139 d93d 1ea4 1c3e 190b 68be

5.weight f4 [64]
1.4447346 1.1494119 0.35948583 1.5103453 1.2973057 1.0506088 1.4422609 0.5904071
0.58018273 1.3810894 1.5150864 1.2237872 1.4886216 1.6832901 1.3577514 1.08284
1.410434 1.4329677 1.3808675 1.3969799 1.1460122 1.0582913 1.0327265 1.3975791
0.91586214 1.4110076 1.2630929 0.9256674 1.2680075 0.77859277 1.0037788 0.6756782
1.2959301 0.8957564 1.4838752 1.3877642 1.0772573 1.3537894 0.9663892 0.35965934
0.836944 0.77127045 1.2685708 1.1174054 1.1943556 1.3229334 0.9184565 0.7987213
1.3763757 0.83206964 1.5151213 1.7491032 1.5327377 1.1684902 0.7204972 1.6317692
1.7667824 1.1748705 1.3558726 1.2807376 1.2676382 1.0649077 0.96607745 1.0536302
00000000: 10ed b83f ee1f 933f 870e b83e ff52 c13f
00000010: 1d0e a63f 597a 863f 019c b83f eb24 173f
00000020: db86 143f 8ac7 b03f 5aee c13f 0fa5 9c3f
00000030: 278b be3f 0d76 d73f ccca ad3f 809a 8a3f
00000040: 1a89 b43f 7c6b b73f 44c0 b03f 3dd0 b23f
00000050: 87b0 923f 1776 873f 6230 843f dfe3 b23f
00000060: f175 6a3f e69b b43f 07ad a13f 8af8 6c3f
00000070: 124e a23f db51 473f d37b 803f 3ff9 2c3f
00000080: 0ae1 a53f 4b50 653f 9fef bd3f 42a2 b13f
00000090: 91e3 893f f948 ad3f 4865 773f 4525 b83e
000000a0: f641 563f fb71 453f 8760 a23f 2407 8f3f
000000b0: a5e0 983f e255 a93f f71f 6b3f 0079 4c3f
000000c0: 142d b03f 8402 553f 7fef c13f 9de2 df3f
000000d0: c030 c43f 1691 953f 8172 383f d0dd d03f
000000e0: ed25 e23f 2862 963f 3c8d ad3f 36ef a33f
000000f0: f841 a23f e54e 883f da50 773f 5bdd 863f

5.bias f4 [64]
-0.5872359 -0.8156011 -0.30791613 -0.9118496 -0.6913123 -0.82729197 -0.7251261 -0.68224585
-0.34337893 -0.4714999 -1.2893555 -0.4316887 -0.48291674 -0.7695709 0.026817229 -0.81524146
-0.5349016 -0.64817935 -1.1164839 -0.78890705 -0.85415345 -0.752834 -0.41124097 -0.79860485
-1.1463379 -1.1123708 -0.49347514 -1.2012662 -0.98072654 -0.7406358 -0.8174515 -0.7561436
-1.1058075 -1.1640186 -0.70541525 -0.6274775 -0.06934873 -0.2207012 -0.74395096 -0.9913815
-0.19770104 -0.57608956 -0.95258516 -0.64764845 -1.3096347 -0.71234125 -0.42999637 -0.87751836
-0.71182185 -0.895119 -0.17245641 -0.71642244 -0.84684455 -0.612383 -0.44448033 -1.3592513
-1.5495126 -0.67382836 -0.7284935 -0.8384022 -0.80758405 -0.5551275 -0.30369246 -0.64596546
00000000: 1855 16bf 3ccb 50bf 2fa7 9dbe fa6e 69bf
00000010: d8f9 30bf 68c9 53bf dda1 39bf aaa7 2ebf
00000020: 5dcf afbe 6f68 f1be 9a09 a5bf 4d06 ddbe
00000030: dd40 f7be 9902 45bf ceaf db3c aab3 50bf
00000040: 50ef 08bf 15ef 25bf f2e8 8ebf d0f5 49bf
00000050: cda9 5abf bbb9 40bf 2d8e d2be 5e71 4cbf
00000060: 33bb 92bf 2b62 8ebf c6a8 fcbe 17c3 99bf
00000070: e510 7bbf 4f9a 3dbf 8044 51bf a192 41bf
00000080: 1a8b 8dbf 90fe 94bf 1896 34bf 5ea2 20bf
00000090: b506 8ebd 7fff 61be 9273 3ebf 2ecb 7dbf
000000a0: 2472 4abe 9b7a 13bf 9fdc 73bf 4acc 25bf
000000b0: 1ca2 a7bf ff5b 36bf 7c28 dcbe 0ba5 60bf
000000c0: f539 36bf 8526 65bf 6a98 30be 7667 37bf
000000d0: ceca 58bf 22c5 1cbf ed92 e3be f2fb adbf
000000e0: 6e56 c6bf 0480 2cbf 8d7e 3abf 87a1 56bf
000000f0: d4bd 4ebf d61c 0ebf 947d 9bbe fe5d 25bf

5.running_mean f4 [64]
-3.2685888 -7.215911 -0.49929807 7.9278607 -0.58711874 -1.0522932 5.9254613 1.2068747
-5.7040353 -2.0133681 -6.6327543 -4.57368 -2.196413 3.2525628 -4.88011 -10.857511
-3.919949 -0.7917908 -0.447455 -1.562474 3.169462 -1.9052742 -2.312933 -1.5633386
0.07855448 -2.4503658 -8.039526 8.418787 -3.3036873 -0.6180652 -6.9168634 -10.513904
-8.474779 10.468069 -1.3190447 -3.77104 -5.7733846 -0.07147382 -6.089431 0.413155
-5.4971466 -4.5251603 -6.458189 1.2998323 -3.467381 -8.261399 -4.404331 14.847419
-0.69811475 -3.617424 -6.57025 -3.0247984 -4.7781606 -1.2666178 -11.778014 0.4419354
-11.842679 -6.781524 -10.120305 -9.300891 -2.4798884 -2.5697696 -12.154019 -7.9407997
00000000: 8f30 51c0 bee8 e6c0 ffa3 ffbe 09b1 fd40
00000010: 6a4d 16bf 8bb1 86bf 619d bd40 df7a 9a3f
00000020: 7587 b6c0 06db 00c0 863f d4c0 965b 92c0
00000030: 0892 0cc0 fd29 5040 dc29 9cc0 5db8 2dc1
00000040: 72e0 7ac0 cdb2 4abf d218 e5be 26ff c7bf
00000050: 77d8 4a40 06e0 f3bf 1807 14c0 7b1b c8bf
00000060: 2ce1 a03d cbd2 1cc0 e6a1 00c1 5ab3 0641
00000070: 9d6f 53c0 8539 1ebf f256 ddc0 f338 28c1
00000080: b298 07c1 367d 2741 75d6 a8bf b858 71c0
00000090: 91bf b8c0 de60 92bd 9edc c2c0 0d89 d33e
000000a0: a0e8 afc0 1dce 90c0 7ca9 cec0 e860 a63f
000000b0: 92e9 5dc0 b12e 04c1 48f0 8cc0 078f 6d41
000000c0: a6b7 32bf e083 67c0 7d3f d2c0 4c96 41c0
000000d0: b1e6 98c0 8820 a2bf bf72 3cc1 5b45 e23e
000000e0: 9d7b 3dc1 3f02 d9c0 c5ec 21c1 73d0 14c1
000000f0: 7eb6 1ec0 1b77 24c0 dd76 42c1 081b fec0

5.running_var f4 [64]
134.4348 82.70501 34.267796 64.4616 100.23832 75.42659 118.85905 60.59361
93.02057 88.51522 52.470222 62.555775 88.637825 117.31033 122.019325 81.51472
99.345436 145.38686 51.9186 89.8419 89.360794 117.99019 136.5274 64.5072
51.949287 57.00278 82.22722 99.573524 80.42 46.566467 73.98417 57.381435
104.642235 97.04572 79.80725 114.890594 84.010826 86.80078 65.7023 55.77787
56.924446 72.850525 75.19248 79.734024 87.22182 122.72801 101.5131 89.46091
89.1115 87.64704 105.15132 90.48939 106.63342 86.66666 125.90603 81.33149
52.71284 69.439354 101.65609 57.72227 69.12433 94.94625 129.51868 86.14238
00000000: 4f6f 0643 f768 a542 3912 0942 57ec 8042
00000010: 057a c842 6ada 9642 d5b7 ed42 db5f 7242
00000020: 880a ba42 cb07 b142 82e1 5142 1d39 7a42
00000030: 9146 b142 e49e ea42 e509 f442 8907 a342
00000040: ddb0 c642 0963 1143 a5ac 4f42 0eaf b342
00000050: bab8 b242 fafa eb42 0487 0843 b003 8142
00000060: 12cc 4f42 d902 6442 5674 a442 a525 c742
00000070: 0ad7 a042 1044 3a42 e5f7 9342 9786 6542
00000080: d348 d142 6917 c242 509d 9f42 fcc7 e542
00000090: 8b05 a842 009a ad42 9467 8342 8a1c 5f42
000000a0: a2b2 6342 78b3 9142 8d62 9642 d277 9f42
000000b0: 9271 ae42 be74 f542 b506 cb42 fceb b242
000000c0: 1739 b242 494b af42 7a4d d242 91fa b442
000000d0: 5044 d542 5455 ad42 e3cf fb42 b9a9 a242
000000e0: f3d9 5242 f3e0 8a42 eb4f cb42 9be3 6642
000000f0: a83f 8a42 7be4 bd42 c884 0143 e648 ac42

8.weight f4 [128, 64, 3, 3]
-0.6272471 -0.2789471 0.4199618 0.073148474 -0.017125476 -0.47358143 -1.1760458 -0.69005907
0.4499511 -0.48271164 -0.11378304 -0.49154514 -0.25015232 0.18251123 0.33495164 1.0483397
0.031657748 0.27900076 -0.33788773 -0.33930302 -0.80831635 -0.049700573 -0.18973851 -0.56837577
0.8330106 0.48150894 0.5485663 0.25514302 0.6296725 0.6415654 0.36951163 -0.16837388
-0.4640791 -0.45121583 0.58654815 1.5180566 -0.2879919 0.07113932 0.8241418 -0.19523467
-0.14699472 -0.13090478 -0.8572213 -0.18710563 0.676142 -0.5271259 -0.30400643 -0.10772514
0.07558106 0.40711325 -0.17568953 -0.37274456 0.6300908 0.843936 0.5397186 0.22506571
0.6186222 0.6145626 0.16610843 -0.30551997 0.32751328 -0.3988261 -0.28733608 0.30449277
-0.1490679 -0.04539061 0.022409977 0.10504279 -0.03791371 -0.11617929 -0.028893206 0.35604703
0.2847563 0.26875606 0.49242842 -0.08871869 0.026361084 0.55119306 -0.06157113 -0.1849475
-0.6124962 0.12175022 0.10994821 0.73516375 0.44171908 0.57159054 0.57230026 0.72645736
-1.3622322 -1.2736243 -0.12068897 0.040903296 0.25837538 -0.2716658 0.4141728 0.1942623
0.21662739 0.34867835 0.26165858 0.36811388 -0.116304755 -0.8702796 -0.010139895 -0.28326303
-0.46903762 0.9883858 0.45636377 -0.49945873 0.6710879 0.34967908 -0.6037551 -0.9819869
-0.51238555 0.6165838 -0.81704587 0.67358243 1.9852916 -0.33577833 -0.44048086 0.013119692
0.004827933 -0.6983949 -0.8291259 -0.13025388 1.1843916 1.096078 -0.18383712 -0.64479196
-0.28120342 1.066773 -0.33911067 -0.36331937 -0.24441153 1.430386 0.25009277 0.028345529
0.16186322 -0.15655781 -0.28221506 -0.3422347 -0.14521505 -0.49082237 -0.330419 -0.6351053
0.38943505 -0.08143528 -0.08804088 -0.4087172 0.72312474 0.70704615 -0.24369472 0.3610037
-0.09949417 -0.3576641 -0.03889068 1.0624645 0.16720955 -0.0826126 -0.31429362 -0.52082443
-0.7903241 -0.7732879 -0.31045792 0.24209602 0.2186589 0.3049473 -0.54158545 -0.3696361
0.13885397 0.7103148 0.3549063 -0.4341405 0.0074182926 1.4856856 -0.434296 0.58652675
0.716476 0.11350744 -0.8048794 -0.2719653 0.08371342 -0.18645735 -0.442818 0.3150218
-0.3573177 -0.23599212 -0.09731859 0.9037274 -0.2765914 -0.12842806 0.28516126 -0.61214334
-0.32152268 -0.5619955 0.54710764 0.91356176 0.2648012 1.301659 0.16747196 0.13381262
0.98447305 -0.5063071 1.0089924 0.87472725 -0.15704662 -0.49491817 -1.5814576 0.06138826
-0.22373189 0.53758144 -0.47732505 -0.17844321 -0.38008273 0.9536837 0.23807979 0.283044
0.11327515 -0.27086818 -0.8041023 -0.004611111 0.029915761 0.24855329 0.41408047 0.40458256
0.2583612 -0.25500777 -0.563516 -0.08261395 -0.17208055 0.14916264 0.046783492 0.18967345
0.45602265 -1.7201182 -0.29348633 -0.5039321 0.19855893 0.38409883 0.2945975 0.2362923
0.39087433 -0.022051373 0.08076422 -0.31305614 0.48291883 0.24533905 0.514521 0.1291126
-0.76708937 0.11075516 0.30164903 -0.40204546 0.33334225 0.439717 0.16384847 -0.3961627
00000000: 4493 20bf 27d2 8ebe 3c05 d73e dece 953d
00000010: ba4a 8cbc 4479 f2be ab88 96bf b6a7 30bf
00000020: fe5f e63e fb25 f7be 1507 e9bd ceab fbbe
00000030: f713 80be 39e4 3a3e c87e ab3e ff2f 863f
00000040: 8eab 013d 30d9 8e3e 9fff acbe 20b9 adbe
00000050: d2ed 4ebf d492 4bbd d04a 42be 1381 11bf
00000060: 2f40 553f 5788 f63e d76e 0c3f 1ba2 823e
00000070: 3832 213f a13d 243f a130 bd3e 346a 2cbe
00000080: c79b edbe c305 e7be 0528 163f ae4f c23f
00000090: ad73 93be 7eb1 913d f5fa 523f 99eb 47be
000000a0: c985 16be e70b 06be db72 5bbf 9e98 3fbe
000000b0: a417 2d3f b9f1 06bf bba6 9bbe 009f dcbd
000000c0: 3eca 9a3d 2671 d03e f5e7 33be 60d8 bebe
000000d0: a14d 213f 310c 583f 002b 0a3f a077 663e
000000e0: 065e 1e3f f953 1d3f 5418 2a3e 1d6d 9cbe
000000f0: d2af a73e ef32 ccbe b71d 93be 7ae6 9b3e
00000100: 41a5 18be 81eb 39bd 2195 b73c ad20 d73d
00000110: 684b 1bbd 68ef edbd 72b1 ecbc cc4b b63e
00000120: 94cb 913e 659a 893e 941f fc3e 25b2 b5bd
00000130: 33f3 d73c fd1a 0d3f 0232 7cbd e162 3dbe
00000140: 8dcc 1cbf 2e58 f93d 872c e13d b133 3c3f
00000150: 0129 e23e c253 123f 4582 123f 1cf9 393f
00000160: a05d aebf 1f06 a3bf c72b f7bd 378a 273d
00000170: c749 843e c817 8bbe 750e d43e b2ec 463e
00000180: 92d3 5d3e f885 b23e 1df8 853e 6c79 bc3e
00000190: 3031 eebd a5ca 5ebf cd21 26bc da07 91be
000001a0: b325 f0be da06 7d3f 83a8 e93e 0eb9 ffbe
000001b0: 6bcc 2b3f 2309 b33e b28f 1abf 7e63 7bbf
000001c0: b32b 03bf 70d8 1d3f eb29 51bf e66f 2c3f
000001d0: 091e fe3f 23eb abbe b586 e1be faf3 563c
000001e0: a333 9e3b 02ca 32bf 9841 54bf 4661 05be
000001f0: 259a 973f 494c 8c3f cc3f 3cbe 1611 25bf
00000200: e5f9 8fbe 058c 883f ea9f adbe ff04 babe
00000210: 0447 7abe e316 b73f 290c 803e e234 e83c
00000220: 79bf 253e b150 20be 7e7e 90be 6339 afbe
00000230: 41b3 14be 124d fbbe ae2c a9be 4396 22bf
00000240: 0864 c73e 8ac7 a6bd c74e b4bd 6143 d1be
00000250: b41e 393f fa00 353f 1c8b 79be 7ad5 b83e
00000260: 99c3 cbbd c01f b7be d54b 1fbd d6fe 873f
00000270: fb38 2b3e cb30 a9bd 18eb a0be c054 05bf
00000280: ae52 4abf 32f6 45bf 57f4 9ebe 05e8 773e
00000290: 1ee8 5f3e 0d22 9c3e 58a5 0abf f140 bdbe
000002a0: bc2f 0e3e 31d7 353f 47b6 b53e aa47 debe
000002b0: 2615 f33b f22a be3f 0c5c debe 9e26 163f
000002c0: f96a 373f 9776 e83d 940c 4ebf 093f 8bbe
000002d0: f171 ab3d adee 3ebe 0ab9 e2be 8a4a a13e
000002e0: 58f2 b6be eba7 71be f84e c7bd ae5a 673f
000002f0: 639d 8dbe a582 03be a800 923e 6db5 1cbf
00000300: 9f9e a4be f0de 0fbf 3f0f 0c3f 2fdf 693f
00000310: 0694 873e c39c a63f c57d 2b3e 2d06 093e
00000320: 6d06 7c3f 589d 01bf aa26 813f 20ee 5f3f
00000330: d4d0 20be ea65 fdbe 346d cabf 4272 7b3d
00000340: f919 65be f09e 093f f363 f4be d1b9 36be
00000350: 349a c2be 9d24 743f 30cb 733e 25eb 903e
00000360: cdfc e73d 3caf 8abe a6d9 4dbf cd18 97bb
00000370: e611 f53c c184 7e3e 5b02 d43e 7225 cf3e
00000380: eb47 843e 6190 82be 9642 10bf 8131 a9bd
00000390: e235 30be 17be 183e 0ca0 3f3d c239 423e
000003a0: cd7b e93e d52c dcbf d743 96be b201 01bf
000003b0: 0853 4b3e 9aa8 c43e 7cd5 963e 9cf6 713e
000003c0: ae20 c83e 15a5 b4bc b667 a53d e548 a0be
000003d0: 2341 f73e 293a 7b3e a6b7 033f 1836 043e
000003e0: f85f 44bf 9ad3 e23d be71 9a3e e7d8 cdbe
000003f0: d6ab aa3e 9622 e13e e5c7 273e d6d5 cabe

8.bias f4 [128]
-0.024447441 0.017083362 0.008335106 0.00728778 0.054771814 -0.017400691 -0.016505161 -0.010301829
0.023215951 -0.009312714 0.0008874714 -0.02947411 0.0069965925 -0.016792925 0.01860098 -0.008779725
0.0018361745 -0.017842265 -0.0022186157 -0.0034810852 -0.016306717 -0.004494449 -0.013946291 -0.019504623
-0.0024278576 0.018996438 0.053443637 -0.0009961068 0.030302182 0.014920736 -0.0010075412 -0.028205406
0.019746289 -1.0487316e-05 0.0152816735 0.049945824 -0.013971337 0.013340463 0.00025148562 0.005924628
-0.019655472 0.0012518525 -0.014360474 -0.017978173 0.009801192 0.029694563 -0.023399232 -0.024534978
0.0042220512 -0.0049234503 -0.025658302 -0.016623132 -0.014721163 -0.013889093 -0.00832357 -0.030934077
-0.018608375 -0.021531763 0.005224385 0.0150088295 -0.0067366036 -0.014414924 -0.026452962 0.0018078808
-0.0060203066 -0.0068754232 -0.01234014 -0.0014498564 0.013339618 0.010583137 -0.018071746 -0.019524865
0.00010188691 0.02030249 -0.013594593 -0.0051347604 -0.0009211362 0.001535095 -0.004473387 -0.0006929336
0.03239111 -0.015121583 0.0038009377 -0.035332687 -0.021372456 0.010855617 -0.032201644 0.041649044
-0.011384729 0.008944875 0.03627074 0.0113550695 -0.00012647815 0.0104671065 0.03991083 -0.0006403668
0.011178869 0.020244515 -0.014910211 -0.013917208 0.00044234397 -0.01332105 -0.005047387 0.021834034
0.040438257 -0.02210907 -0.00948843 -0.023853725 0.004909811 -0.009666908 -0.012264634 0.015945435
-0.00220168 -0.02326354 -0.019142134 0.030226842 0.014572214 0.011366981 -0.0032333683 -0.011685686
-0.030360738 0.0077640135 0.009549571 -0.036487404 -0.009710943 0.011758059 0.016055172 0.007466542
00000000: 0046 c8bc 68f2 8b3c f88f 083c 54ce ee3b
00000010: 6958 603d e58b 8ebc d535 87bc 01c9 28bc
00000020: 612f be3c 5b94 18bc 33a5 683a b073 f1bc
00000030: ac43 e53b 5191 89bc 1561 983c d6d8 0fbc
00000040: cbab f03a f129 92bc 3266 11bb eb22 64bb
00000050: aa95 85bc 2c46 93bb fc7e 64bc 29c8 9fbc
00000060: b11c 1fbb 6b9e 9b3c b7e7 5a3d cc8f 82ba
00000070: 483c f83c 1a76 743c 790f 84ba 060f e7bc
00000080: f8c2 a13c aef2 2fb7 fc5f 7a3c fe93 4c3d
00000090: 09e8 64bc f591 5a3c d4d9 8339 6223 c23b
000000a0: 8304 a1bc 3315 a43a 3248 6bbc f646 93bc
000000b0: 2e95 203c 0342 f33c bfaf bfbc 94fd c8bc
000000c0: 2259 8a3b e554 a1bb 5c31 d2bc 3c2d 88bc
000000d0: 0831 71bc 148f 63bc 955f 08bc 7669 fdbc
000000e0: 9770 98bc 6163 b0bc 5131 ab3b 98e7 753c
000000f0: babe dcbb 932c 6cbc e2b3 d8bc 6af6 ec3a
00000100: fe45 c5bb 3b4b e1bb 4c2e 4abc 1c09 beba
00000110: 6a8e 5a3c e564 2d3c 330b 94bc 9cf2 9fbc
00000120: 1eac d538 6851 a63c dbbb 5ebc 7e41 a8bb
00000130: 6778 71ba 3e35 c93a 7d95 92bb fda5 35ba
00000140: 8aac 043d 84c0 77bc 2719 793b 02b9 10bd
00000150: 4a15 afbc c2db 313c dfe5 03bd 3098 2a3d
00000160: 0487 3abc 868d 123c a190 143d 9d0a 3a3c
00000170: 389f 04b9 3a7e 2b3c 8a79 233d 4ade 27ba
00000180: 9327 373c d3d7 a53c f549 74bc 0005 64bc
00000190: 67ea e739 8940 5abc 8d64 a5bb 4add b23c
000001a0: 96a2 253d 151e b5bc 5c75 1bbc e368 c3bc
000001b0: 7be2 a03b f361 1ebc 9af1 48bc 00a0 823c
000001c0: 104a 10bb 2e93 bebc f7cf 9cbc 489e f73c
000001d0: 4cc0 6e3c 933c 3a3c ebe6 53bb 5275 3fbc
000001e0: 15b7 f8bc 4469 fe3b ce75 1c3c d173 15bd
000001f0: a61a 1fbc e0a4 403c 2386 833c e5a9 f43b

9.weight f4 [128]
0.91107196 0.59848076 0.86521465 0.74525666 0.78614885 0.828269 0.74253565 0.73306787
0.764788 0.9069751 0.6988935 1.1421068 0.6630626 0.6347927 0.60698724 0.53913504
0.6864904 0.907745 0.58956623 0.87865037 0.7102402 0.61010003 0.72735 0.7360446
0.72151244 0.7166947 0.7088104 1.0180211 0.80409217 0.7678887 0.44240415 0.59132624
0.75505704 0.68507123 0.6800708 1.0056384 0.8304735 0.37876686 0.7550569 0.9075463
0.69418836 0.83061916 0.69191414 0.6290324 0.67896867 0.6522745 0.91203445 0.7818779
0.6738215 0.80154663 0.6479465 0.76088583 0.7765614 0.67794067 0.6501733 0.89997005
0.8520854 1.1225462 0.39725018 0.7326849 0.7628954 0.38177392 1.0989629 0.5392332
0.67558193 0.8940002 0.49119374 0.76257867 0.95584726 0.8595951 0.76893944 0.7866318
0.5371726 0.6550195 0.51938146 0.77201337 0.65861106 0.93757993 0.6043955 0.45545796
0.6475737 0.8494307 1.0104432 1.0345271 0.77760327 0.75501436 0.92449266 0.6416169
0.96815723 0.7724301 0.91221106 0.69739145 0.6495761 1.0369757 0.8945861 0.7616382
0.93127793 0.5926222 0.54469645 0.7908537 0.8002313 0.8139987 0.6379706 0.51949435
0.69938743 0.5689808 0.9295953 0.9069298 0.93866765 0.5927647 0.59334224 0.5319136
0.7616605 0.80674845 0.6415534 0.91464657 0.86558044 0.7496828 0.78208804 0.596521
0.520914 0.7698123 0.76410526 0.62942725 0.7507105 0.8983844 0.72871846 0.7743388
00000000: 033c 693f 0936 193f b57e 5d3f 24c9 3e3f
00000010: 0d41 493f 7009 543f d116 3e3f 56aa 3b3f
00000020: 25c9 433f 852f 683f afea 323f 8e30 923f
00000030: 78be 293f c681 223f 8463 1b3f c104 0a3f
00000040: d6bd 2f3f fa61 683f d0ed 163f 3bef 603f
00000050: 4dd2 353f 842f 1c3f 9c33 3a3f 6b6d 3c3f
00000060: 0ab5 383f 4e79 373f 9974 353f 844e 823f
00000070: fcd8 4d3f 5b94 443f cc82 e23e 2861 173f
00000080: 6b4b 413f d460 2f3f 1f19 2e3f c2b8 803f
00000090: e999 543f bbed c13e 694b 413f f454 683f
000000a0: 54b6 313f 75a3 543f 4921 313f 4408 213f
000000b0: e4d0 2d3f 76fb 263f 177b 693f 2629 483f
000000c0: 917f 2c3f 2932 4d3f d2df 253f 6ac9 423f
000000d0: bacc 463f 858d 2d3f c271 263f 7064 663f
000000e0: 4522 5a3f 98af 8f3f 6064 cb3e 3d91 3b3f
000000f0: 1d4d 433f df77 c33e d1aa 8c3f 300b 0a3f
00000100: f0f2 2c3f 32dd 643f bf7d fb3e 5b38 433f
00000110: 68b2 743f 6d0e 5c3f 37d9 443f b460 493f
00000120: 2584 093f 5caf 273f 2ff6 043f aba2 453f
00000130: bc9a 283f 3d05 703f aab9 1a3f c931 e93e
00000140: 64c7 253f 4a74 593f 3456 813f 626b 843f
00000150: 0211 473f 9f48 413f 8dab 6c3f 0141 243f
00000160: 27d9 773f fbbd 453f aa86 693f 3f88 323f
00000170: 9f4a 263f 9fbb 843f 9803 653f b9fa 423f
00000180: 3b68 6e3f 17b6 173f 3a71 0b3f 6375 4a3f
00000190: f5db 4c3f 3862 503f 0b52 233f 95fd 043f
000001a0: 0e0b 333f baa8 113f f5f9 6d3f 8d2c 683f
000001b0: 864c 703f 6dbf 173f 47e5 173f 7d2b 083f
000001c0: 2ffc 423f 1187 4e3f d83c 243f 4726 6a3f
000001d0: ae96 5d3f 36eb 3f3f ec36 483f 9ab5 183f
000001e0: 9f5a 053f 6b12 453f 679c 433f 2522 213f
000001f0: 902e 403f 85fc 653f 4b8d 3a3f 113b 463f

9.bias f4 [128]
-0.82509726 -1.0843699 -0.7696679 -0.75813043 -0.66216195 -1.0264438 -0.8165335 -1.054124
-0.8341916 -0.91194504 -0.74224627 -0.8829127 -1.0963699 -0.7388079 -0.7940285 -0.91471636
-0.79634804 -0.8539107 -0.9870691 -0.81403476 -0.64375037 -0.91211087 -0.9646477 -0.82726216
-0.73445356 -0.75086087 -0.7070137 -0.80015504 -1.0484918 -0.8824393 -0.9349659 -0.8476753
-0.8822228 -0.75046057 -0.8932719 -0.60133475 -0.9177184 -0.74843407 -0.9155447 -0.65555304
-0.65623796 -0.87100106 -0.7868558 -0.7313284 -0.63609475 -0.7823495 -0.9133143 -0.9988852
-0.827872 -0.943015 -1.0935557 -0.72298515 -0.61168146 -0.88312584 -0.7807791 -0.7650347
-0.78521484 -0.9858691 -0.6866696 -1.0586056 -0.7977134 -0.750967 -0.9453235 -0.8502361
-0.9574228 -0.75581133 -1.142396 -0.99092966 -0.7625612 -0.8402394 -0.8203441 -0.5963254
-1.0046715 -0.8490961 -0.71608126 -0.8124509 -0.8773078 -0.5841745 -0.83675843 -0.8559761
-0.96661437 -0.82817507 -0.69564956 -0.71006626 -0.72779644 -0.82251275 -0.7144525 -0.8879389
-0.95273393 -0.83979535 -0.9520015 -1.0779059 -0.78485 -0.78233415 -0.85224056 -0.8856767
-0.9798804 -0.7310845 -0.7780022 -0.6472004 -0.99300766 -0.79013586 -0.71600723 -0.84589636
-0.59503645 -0.8021822 -1.2116948 -0.6871075 -0.94128543 -1.1154643 -0.9203445 -0.7812072
-0.909762 -0.7247928 -0.6768211 -0.49389088 -0.61316884 -0.8361287 -0.6604554 -0.85698235
-0.6428266 -0.7249381 -0.85140413 -0.8468498 -0.9050178 -0.4821064 -0.7813051 -0.55774933
00000000: 9339 53bf a2cc 8abf f508 45bf d614 42bf
00000010: 7283 29bf 8362 83bf 5708 51bf 89ed 86bf
00000020: 958d 55bf 3b75 69bf da03 3ebf 9106 62bf
00000030: d955 8cbf 8422 3dbf 7445 4bbf da2a 6abf
00000040: 77dd 4bbf e499 5abf 8fb0 7cbf 9564 50bf
00000050: d3cc 24bf 1980 69bf 27f3 76bf 74c7 53bf
00000060: 2605 3cbf 6b38 40bf dafe 34bf f6d6 4cbf
00000070: fb34 86bf 8be7 61bf ed59 6fbf 4001 59bf
00000080: 5ad9 61bf 2f1e 40bf 78ad 64bf 13f1 19bf
00000090: 98ef 6abf 6099 3fbf 2361 6abf 53d2 27bf
000000a0: 36ff 27bf edf9 5ebf 626f 49bf 5738 3bbf
000000b0: 1bd7 22bf 0f48 48bf f7ce 69bf f1b6 7fbf
000000c0: 6bef 53bf 6e69 71bf a2f9 8bbf 8e15 39bf
000000d0: 2897 1cbf 8914 62bf 24e1 47bf 50d9 43bf
000000e0: d703 49bf eb61 7cbf 94c9 2fbf 6380 87bf
000000f0: f236 4cbf 603f 40bf b900 72bf 13a9 59bf
00000100: a919 75bf da7c 41bf 083a 92bf 91ad 7dbf
00000110: 3637 43bf ee19 57bf 1202 52bf c8a8 18bf
00000120: 1399 80bf 5d5e 59bf 1a51 37bf c8fc 4fbf
00000130: 3e97 60bf 768c 15bf cd35 56bf 4021 5bbf
00000140: 0a74 77bf 4803 54bf 1716 32bf e7c6 35bf
00000150: de50 3abf 3290 52bf 5ce6 36bf f74f 63bf
00000160: 5fe6 73bf d4fc 56bf 5fb6 73bf d2f8 89bf
00000170: eeeb 48bf 0d47 48bf 702c 5abf b5bb 62bf
00000180: 71d9 7abf 5b28 3bbf 272b 47bf edae 25bf
00000190: c035 7ebf 5846 4abf 404c 37bf aa8c 58bf
000001a0: 4f54 18bf d05b 4dbf d118 9bbf 47e6 2fbf
000001b0: 15f8 70bf 89c7 8ebf b29b 6bbf 32fd 47bf
000001c0: 2ae6 68bf 058c 39bf 2644 2dbf 44df fcbe
000001d0: a2f8 1cbf 880c 56bf 9b13 29bf 3263 5bbf
000001e0: 4990 24bf 8b95 39bf 9ff5 59bf 26cb 58bf
000001f0: 3faf 67bf a6d6 f6be 9c03 48bf a9c8 0ebf

9.running_mean f4 [128]
3.3447561 -6.231996 2.6325154 -4.287709 -0.57037824 6.7667847 -3.827109 -5.259387
-8.759051 -2.1540294 -6.616075 -2.9561546 5.929618 -11.491537 -2.3857625 -3.6890917
0.034038834 -17.916813 -5.824917 -3.162613 0.84783405 -7.3445683 -5.561232 -5.4285836
-8.528759 2.6632166 -7.4703636 -1.7953166 -4.7044983 1.4883145 -7.6318674 1.4843861
-2.8776896 -3.6936784 -5.794611 -8.935805 -13.607134 -10.192153 -8.51766 -9.497801
-1.5277975 -5.3787866 -5.19829 -12.860181 -4.6922903 -1.3194196 -3.395551 1.9312537
0.13485797 -1.7409412 -5.448129 -13.269477 -3.8318172 -0.32342392 -2.6009285 -6.5353293
-6.505909 -1.2577521 0.73525184 -1.7888691 -7.7305336 -3.6236882 -6.455359 -0.47850665
-3.456313 2.2325325 -4.0254345 -3.7478726 -17.65487 -10.4491415 -2.7443557 -12.389173
-2.0052023 -2.0505877 -0.41677132 -3.4904478 -1.821765 -9.050807 -3.330361 -7.0367384
3.7062235 3.7934127 -8.387453 -13.238582 -2.937278 -5.249934 -16.715887 -4.6900897
-2.7122288 3.468911 4.309823 -3.4340029 -1.6161226 -5.798869 -1.8999527 -3.2686093
3.7051783 -5.0347476 -6.3843093 -0.84434927 -1.432252 -2.3517644 -8.476507 -8.065967
-12.2756605 -4.8402014 -4.880709 -0.8019785 -4.163974 4.3148427 -6.4630876 -3.543337
-7.007458 -0.4702138 -4.2851715 1.133679 -4.3054447 -6.5971036 -4.1917067 -10.648621
-7.11078 -5.425015 -3.2681146 0.28500456 4.419838 -13.031696 -11.920376 -3.5826812
00000000: 7c10 5640 836c c7c0 227b 2840 ea34 89c0
00000010: 4f04 12bf 8089 d840 5bef 74c0 e64c a8c0
00000020: 1325 0cc1 9edb 09c0 e3b6 d3c0 a331 3dc0
00000030: 6ebf bd40 56dd 37c1 55b0 18c0 141a 6cc0
00000040: 4e6c 0b3d a255 8fc1 b865 bac0 4068 4ac0
00000050: a70b 593f b406 ebc0 9df5 b1c0 f5b6 adc0
00000060: cc75 08c1 2472 2a40 380d efc0 efcc e5bf
00000070: 408b 96c0 1781 be3f 4238 f4c0 5d00 be3f
00000080: 112c 38c0 3a65 6cc0 746d b9c0 0ff9 0ec1
00000090: d2b6 59c1 0f13 23c1 5648 08c1 fef6 17c1
000000a0: de8e c3bf 051f acc0 6458 a6c0 4dc3 4dc1
000000b0: 3e27 96c0 bee2 a8bf b550 59c0 5233 f73f
000000c0: 3518 0a3e 29d7 debf 1357 aec0 c74f 54c1
000000d0: 7e3c 75c0 d297 a5be 9d75 26c0 6b21 d1c0
000000e0: 6830 d0c0 05fe a0bf 7739 3c3f aaf9 e4bf
000000f0: 8860 f7c0 82ea 67c0 4d92 cec0 d3fe f4be
00000100: 3b34 5dc0 d0e1 0e40 5cd0 80c0 25dd 6fc0
00000110: 2c3d 8dc1 af2f 27c1 86a3 2fc0 0d3a 46c1
00000120: 3c55 00c0 d43c 03c0 0d63 d5be 7f63 5fc0
00000130: 982f e9bf 1bd0 10c1 a224 55c0 f62c e1c0
00000140: c432 6d40 46c7 7240 0233 06c1 3bd1 53c1
00000150: 5dfc 3bc0 76ff a7c0 23ba 85c1 3715 96c0
00000160: 2895 2dc0 a302 5e40 12ea 8940 b4c6 5bc0
00000170: 1bdd cebf 5690 b9c0 a631 f3bf e530 51c0
00000180: a421 6d40 a71c a1c0 434c ccc0 4627 58bf
00000190: 0954 b7bf 4f83 16c0 c69f 07c1 330e 01c1
000001a0: 1b69 44c1 eee2 9ac0 c52e 9cc0 774e 4dbf
000001b0: 463f 85c0 3113 8a40 9dd1 cec0 09c6 62c0
000001c0: 193d e0c0 ddbf f0be 2020 89c0 651c 913f
000001d0: 34c6 89c0 791b d3c0 7622 86c0 c060 2ac1
000001e0: 828b e3c0 b999 adc0 ca28 51c0 1eec 913e
000001f0: 506f 8d40 d481 50c1 dcb9 3ec1 a64a 65c0

9.running_var f4 [128]
112.249886 112.07647 88.72769 90.90205 159.3766 81.20669 150.86072 117.594505
132.98732 85.36751 104.34655 182.87177 83.665115 99.53921 76.57552 92.776375
101.066895 95.52867 105.544525 124.73427 85.72353 81.703316 98.46035 86.71911
117.609795 81.10769 91.18088 130.24019 106.500626 86.88538 78.14229 53.135807
137.3902 126.2798 116.33111 153.0121 159.81944 93.24759 132.3951 157.41302
78.99845 92.49034 63.777096 168.20891 84.461395 98.00027 150.41432 136.32468
115.93607 97.53481 81.10029 204.33206 154.32826 78.88375 77.70095 122.637146
160.18127 157.26974 54.05974 104.80128 113.85526 77.44084 179.8873 61.907013
81.17685 150.65027 80.78136 109.13984 219.40567 163.65848 192.82246 129.79822
107.801994 81.331345 111.57983 115.12914 127.38464 141.59708 108.27261 84.64401
119.253746 159.14307 134.36708 183.18669 124.18692 100.91064 176.77515 110.88142
155.91463 104.201256 118.61353 97.4218 115.19797 190.83167 115.24728 87.57382
72.01845 106.98268 81.72848 99.52344 112.2428 108.655785 146.42332 90.65808
121.4666 89.62029 133.13333 157.18138 136.97856 91.95337 94.98126 92.839714
95.08448 139.80843 110.227745 124.469315 142.51895 114.39682 66.05663 86.34232
80.38647 158.87674 104.37709 71.43461 104.74356 138.91217 126.26907 123.88699
00000000: f17f e042 2727 e042 9474 b142 d9cd b542
00000010: 6960 1f43 d369 a242 58dc 1643 6330 eb42
00000020: c1fc 0443 2abc aa42 6fb1 d042 2cdf 3643
00000030: 8a54 a742 1314 c742 ab26 9942 818d b942
00000040: 4022 ca42 ae0e bf42 cc16 d342 f277 f942
00000050: 7372 ab42 1968 a342 b3eb c442 2f70 ad42
00000060: 3738 eb42 2337 a242 9c5c b642 7d3d 0243
00000070: 5200 d542 51c5 ad42 da48 9c42 118b 5442
00000080: e463 0943 428f fc42 87a9 e842 1903 1943
00000090: c7d1 1f43 c47e ba42 2565 0443 bc69 1d43
000000a0: 35ff 9d42 0efb b842 bf1b 7f42 7b35 2843
000000b0: 3cec a842 2300 c442 116a 1643 1e53 0843
000000c0: 45df e742 d311 c342 5933 a242 0255 4c43
000000d0: 0954 1a43 7bc4 9d42 e366 9b42 3846 f542
000000e0: 682e 2043 0e45 1d43 2c3d 5842 419a d142
000000f0: e5b5 e342 b6e1 9a42 26e3 3343 c8a0 7742
00000100: 8c5a a242 78a6 1643 0e90 a142 9947 da42
00000110: da67 5b43 92a8 2343 8dd2 4043 58cc 0143
00000120: 9f9a d742 a6a9 a242 df28 df42 1f42 e642
00000130: f0c4 fe42 da98 0d43 948b d842 bc49 a942
00000140: eb81 ee42 a024 1f43 f95d 0643 cb2f 3743
00000150: b45f f842 3fd2 c942 70c6 3043 49c3 dd42
00000160: 25ea 1b43 0b67 d042 213a ed42 f6d7 c242
00000170: 5c65 e642 e8d4 3e43 9b7e e642 cc25 af42
00000180: 7209 9042 22f7 d542 fb74 a342 000c c742
00000190: 507c e042 c34f d942 5f6c 1243 f050 b542
000001a0: e6ee f242 973d b342 2222 0543 6f2e 1d43
000001b0: 83fa 0843 20e8 b742 68f6 bd42 efad b942
000001c0: 412b be42 f5ce 0b43 9b74 dc42 4af0 f842
000001d0: da84 0e43 2ccb e442 ff1c 8442 45af ac42
000001e0: dfc5 a042 72e0 1e43 12c1 d042 85de 8e42
000001f0: b47c d142 84e9 0a43 c489 fc42 24c6 f742
